…
                "<_io.TextIOWrapper name='m4_005/progress.txt' mode='w' encoding='UTF-8'>":	{
                    "mode":	"w"
                }
            }
        }
    },
    "logger_kwargs":	{
        "exp_name":	"m4_005",
        "output_dir":	"m4_005"
    },
    "max_ep_len":	100,
    "num_test_episodes":	10,
    "pi_lr":	0.002,
    "polyak":	0.999,
    "q_lr":	0.002,
    "replay_size":	8000000,
    "save_file":	true,
    "save_freq":	1,
    "seed":	0,
    "start_steps":	0,
    "steps_per_epoch":	1500,
    "trained_ac":	{
        "MLPActorCritic(\n  (pi): MLPActor(\n    (pi): Sequential(\n      (0): Linear(in_features=9, out_features=128, bias=True)\n      (1): ReLU()\n      (2): Linear(in_features=128, out_features=32, bias=True)\n      (3): ReLU()\n      (4): Linear(in_features=32, out_features=2, bias=True)\n      (5): Tanh()\n    )\n  )\n  (q): MLPQFunction(\n    (q): Sequential(\n      (0): Linear(in_features=11, out_features=128, bias=True)\n      (1): ReLU()\n      (2): Linear(in_features=128, out_features=32, bias=True)\n      (3): ReLU()\n      (4): Linear(in_features=32, out_features=1, bias=True)\n      (5): Identity()\n    )\n  )\n)":	{
            "_backward_hooks":	{},
            "_buffers":	{},
            "_forward_hooks":	{},
            "_forward_pre_hooks":	{},
            "_load_state_dict_pre_hooks":	{},
            "_modules":	{
                "pi":	{
                    "MLPActor(\n  (pi): Sequential(\n    (0): Linear(in_features=9, out_features=128, bias=True)\n    (1): ReLU()\n    (2): Linear(in_features=128, out_features=32, bias=True)\n    (3): ReLU()\n    (4): Linear(in_features=32, out_features=2, bias=True)\n    (5): Tanh()\n  )\n)":	{
                        "_backward_hooks":	{},
                        "_buffers":	{},
                        "_forward_hooks":	{},
                        "_forward_pre_hooks":	{},
                        "_load_state_dict_pre_hooks":	{},
                        "_modules":	{
                            "pi":	{
                                "Sequential(\n  (0): Linear(in_features=9, out_features=128, bias=True)\n  (1): ReLU()\n  (2): Linear(in_features=128, out_features=32, bias=True)\n  (3): ReLU()\n  (4): Linear(in_features=32, out_features=2, bias=True)\n  (5): Tanh()\n)":	{
                                    "_backward_hooks":	{},
                                    "_buffers":	{},
                                    "_forward_hooks":	{},
                                    "_forward_pre_hooks":	{},
                                    "_load_state_dict_pre_hooks":	{},
                                    "_modules":	{
…
                                    },
                                    "_parameters":	{},
                                    "_state_dict_hooks":	{},
                                    "training":	true
                                }
                            }
                        },
                        "_parameters":	{},
                        "_state_dict_hooks":	{},
                        "act_limit":	"1.0",
                        "training":	true
                    }
                },
                "q":	{
                    "MLPQFunction(\n  (q): Sequential(\n    (0): Linear(in_features=11, out_features=128, bias=True)\n    (1): ReLU()\n    (2): Linear(in_features=128, out_features=32, bias=True)\n    (3): ReLU()\n    (4): Linear(in_features=32, out_features=1, bias=True)\n    (5): Identity()\n  )\n)":	{
                        "_backward_hooks":	{},
                        "_buffers":	{},
                        "_forward_hooks":	{},
                        "_forward_pre_hooks":	{},
                        "_load_state_dict_pre_hooks":	{},
                        "_modules":	{
                            "q":	{
                                "Sequential(\n  (0): Linear(in_features=11, out_features=128, bias=True)\n  (1): ReLU()\n  (2): Linear(in_features=128, out_features=32, bias=True)\n  (3): ReLU()\n  (4): Linear(in_features=32, out_features=1, bias=True)\n  (5): Identity()\n)":	{
                                    "_backward_hooks":	{},
                                    "_buffers":	{},
                                    "_forward_hooks":	{},
                                    "_forward_pre_hooks":	{},
                                    "_load_state_dict_pre_hooks":	{},
                                    "_modules":	{
…
